data.pth (torch, 5349 bytes, 6 tensors)

l1.weight f4 [8, 54]
000000 c1 9d 07 be fb 6d 27 3e d0 59 5f 3e 1e 78 85 3e
       -0.13243772 0.16350548 0.21811604 0.26068205
000010 02 65 ed 3b 90 f8 5a be 71 a8 4f 3e 7c 85 68 3e
       0.007244707 -0.21383882 0.20279099 0.2270717
000020 ce 7a 06 3f cb d1 44 3d 69 8c 05 3e c8 19 d3 3e
       0.52531135 0.048051637 0.13041843 0.41230607
000030 af 90 18 3f 4b e7 d9 3e b8 32 00 3e fd e0 ad 3e
       0.5959577 0.42559275 0.12519348 0.33960715
000040 49 6e 8b 3e f2 00 5b be 1c d6 eb 3d b6 c9 b0 3e
       0.27232578 -0.2138708 0.115154475 0.34528893
000050 86 67 22 bd a5 ea a9 3e 21 5f 93 3e 7c 52 c5 3e
       -0.03964951 0.33186832 0.28783515 0.38539493
000060 83 5e d8 3e da 71 a2 3e 41 18 08 3e 5e 4e 0f 3e
       0.42259607 0.31727487 0.13290502 0.13994738
000070 cc 9b 1d 3e 09 bb 88 3d e9 55 08 be 30 39 19 3f
       0.15391463 0.06676299 -0.13314022 0.59852886
000080 46 3a 7a bc 62 59 ad 3e d2 b9 89 3e f4 1e 85 3e
       -0.0152726825 0.33857256 0.26899582 0.26000178
000090 5c ab f0 3d 48 ee dd 3e a5 86 36 3e 9f 59 86 3e
       0.11751434 0.43345857 0.178248 0.2624025
0000a0 53 0a e9 bd 1f 83 89 3e 27 ef e6 3e a0 45 46 3e
       -0.11378922 0.2685785 0.45104334 0.19362497
0000b0 32 18 1c 3f fc 77 9b 3e d5 02 85 be 6c 8f 2b bd
       0.6097442 0.30364978 -0.25978723 -0.041884825
0000c0 80 4a 69 3d a8 a6 d5 3e 10 b4 bb 3e 7e ba 0c 3e
       0.056955814 0.4172871 0.36660814 0.13743016
0000d0 ba 2a 83 3e 2c 92 b4 3d 48 62 25 3e 2b bc a7 be
       0.25618535 0.088169426 0.16150773 -0.32760748
0000e0 e1 f5 da 3e 4c 8c 4f bd ee c6 f0 3d d3 1d 31 3f
       0.42765716 -0.050670907 0.11756693 0.69186133
0000f0 74 83 a3 3e b1 60 a2 3e d2 d4 ab 3e a1 01 6c 3e
       0.31936228 0.31714395 0.33560807 0.23047496
000100 0f c2 82 bd 78 71 91 3e 61 92 28 3e 0d 7b 5a 3e
       -0.0638467 0.28406882 0.16462089 0.21336003
000110 96 62 68 be 96 f2 fe bc 15 a9 f7 3d 81 9d 24 3f
       -0.22693858 -0.031121533 0.12092797 0.6430283
000120 49 51 cc be ac 3e 05 3e 72 eb 07 bd a1 52 24 3e
       -0.39905766 0.13012189 -0.033183523 0.16047145
000130 a5 92 2b bd 68 32 b1 3d 60 e6 94 3e 25 d4 9b 3d
       -0.041887898 0.08652192 0.29082012 0.07608823
000140 ba b3 d6 be 79 0b af be 31 96 4b 3d aa e4 e0 be
       -0.41933995 -0.3418844 0.04970378 -0.43924457
000150 b7 69 e1 3e a1 ec 22 3e e3 50 f2 3d ae 81 c2 3e
       0.44025967 0.1591058 0.11831834 0.37989563
000160 7f d4 29 be db 31 c5 3d 95 29 3b be 8e 95 ec 3e
       -0.16584967 0.0962865 -0.18277581 0.4620785
000170 c1 ad 8d 3e b8 a9 54 3e 32 63 11 3f cd 44 f5 be
       0.27671626 0.20767868 0.56791985 -0.47904053
000180 09 83 89 3e 25 ee 8a be bb 52 ae 3e 7b 7c 41 be
       0.26857784 -0.27134815 0.34047493 -0.18895142
000190 30 dc f8 be 31 7b d4 bc e0 66 93 bd ef 54 c1 be
       -0.4860549 -0.025937648 -0.07197356 -0.37760112
0001a0 e7 32 1a 3e b8 1a 73 be 67 a5 cf 3e 00 0e 6c 3e
       0.1505848 -0.23740661 0.4055588 0.23052216
0001b0 be 10 0f 3f eb 0e 9b 3d 79 a7 85 be 7c c5 59 bd
       0.5588492 0.07571205 -0.26104334 -0.05316685
0001c0 c6 98 bf be 28 2f 20 3f 80 e5 04 be c4 4c 6e be
       -0.37421244 0.62571955 -0.12978172 -0.23271471
0001d0 f7 ea 77 be 7a 65 b8 be b2 04 b2 be e7 ad 0c 3f
       -0.24210726 -0.3601492 -0.34769207 0.54952854
0001e0 55 5f cc bd 59 e0 24 3f e3 9f fa 3d 8b 7e d3 3e
       -0.09979121 0.6440483 0.12237527 0.41307482
0001f0 fc 07 08 be 34 47 18 3f 1f 9f 1f 3e 6c 4c f8 be
       -0.13284296 0.5948365 0.15588044 -0.48495805
000200 a6 d2 9d 3e 4f 73 d3 be da 63 f8 be d0 a0 37 3e
       0.30824775 -0.4129891 -0.4851368 0.17932439
000210 65 4f 81 3e 3d 40 c0 bc 48 90 bb 3d 5e 4c f8 3d
       0.25255886 -0.023468131 0.09158379 0.12123941
000220 10 9b 05 3e cc 2f 3c 3d 94 c8 05 3f 1d 78 05 3f
       0.13047433 0.04594402 0.5225918 0.52136403
000230 21 c3 b8 3e 1e af a0 be c4 84 c3 bd ab d9 d8 3e
       0.36086372 -0.31383604 -0.095468074 0.42353567
000240 b1 89 ee bc 89 76 70 bd 72 9e 83 be 4c 9c 66 be
       -0.02911839 -0.058706794 -0.25706822 -0.2252056
000250 f1 00 aa 3e a7 2f 76 3d 36 e8 af 3e 71 3f 2b 3e
       0.33203843 0.06010404 0.3435685 0.1672342
000260 3b c3 22 3d 6c 8f 12 3d 0a 0b 82 3f b9 5a df 3e
       0.039736968 0.03578131 1.0159619 0.43623903
000270 93 af 05 be e4 b8 24 3e 96 5e 6b 3e d3 a5 49 bd
       -0.13055257 0.16086155 0.229853 -0.049230408
000280 ab 7b 00 be e2 4b 42 3e cb 64 05 3f 76 c9 df 3d
       -0.12547176 0.1897426 0.5210692 0.109270975
000290 c7 be 65 be 49 1d ac 3e 15 0e 82 3d fd 8a b3 be
       -0.22436057 0.33616093 0.06350342 -0.35066977
0002a0 2f 3e 2c bd b4 bb 84 bd de bc 8a be 33 3e e6 bd
       -0.04205149 -0.06481114 -0.2709722 -0.11242332
0002b0 6c ad d4 3e 1c da 10 be 2a 4f a4 be cc ec 82 be
       0.4153856 -0.14145702 -0.32091647 -0.25571287
0002c0 fb d4 b7 bd 02 23 5a bd f4 b5 79 3e 47 bc c9 be
       -0.0897617 -0.053256042 0.24385816 -0.39401457
0002d0 16 64 2b be 75 86 12 3f 11 75 e4 3e 32 cd 2c 3f
       -0.16737399 0.57236415 0.44620565 0.67500603
0002e0 3f 5c c5 3e 12 8d ba 3e 84 8e 0c be ab 8c d9 3e
       0.3854694 0.36435753 -0.1372624 0.42490134
0002f0 0b e4 76 be 17 f9 bb be bb 5e 4b be e0 f4 05 be
       -0.24110429 -0.36713478 -0.19860356 -0.13081694
000300 52 01 9d be f4 29 63 be 48 4c d5 3e 65 88 29 be
       -0.3066507 -0.22183973 0.4165976 -0.16555937
000310 5c a7 f1 bd 49 11 83 3d 18 4f 0a be d0 47 f7 be
       -0.117994994 0.06399781 -0.13506734 -0.48296976
000320 25 90 63 be 56 96 8d bd 28 90 4c be 47 7b f9 bd
       -0.22222956 -0.0691344 -0.19976866 -0.121817164
000330 3e 5a 10 be 55 b7 df bd e3 e2 59 be b4 5b dd bd
       -0.14096925 -0.1092364 -0.21277957 -0.108085066
000340 0d 27 59 3f c0 e5 c9 3e d1 74 be 3e 2d 1a 8e be
       0.8482521 0.39433098 0.371985 -0.27754346
000350 58 5b c6 3d 4a 81 b1 3c 42 e2 4c 3b 9d 92 60 3e
       0.09685391 0.021668095 0.003126279 0.21930929
000360 ba 77 fe 3e f7 ab dc 3d 4a 5d 58 be 8d 8b 94 be
       0.4970072 0.10774987 -0.21129337 -0.2901272
000370 75 64 9f be 01 77 fb 3e 53 cc 43 be a7 17 4a be
       -0.3113133 0.4911423 -0.19120912 -0.19735585
000380 00 68 44 3d 66 6d 63 be bc 83 4d be 22 38 9f 3e
       0.047950745 -0.22209701 -0.20069784 0.31097513
000390 f3 13 c2 bd 6e 97 c3 3e b3 cf bb bd 0d 11 f9 3e
       -0.09476461 0.3820147 -0.09170475 0.4864582
0003a0 a2 25 46 be f6 1a 13 3f a6 0c 23 be 9a fe c8 be
       -0.19350293 0.57463014 -0.15922794 -0.39256746
0003b0 f3 04 f1 3e dd f0 c8 be 45 f2 c8 be 8c 2a 40 3e
       0.47074088 -0.39246264 -0.39247337 0.1876623
0003c0 3d fa 81 3e 31 0a 9d bd 0f 56 b0 3d 17 f9 4b be
       0.2538623 -0.076679595 0.086101644 -0.19919239
0003d0 6f 81 c7 3b 67 84 b6 bd f2 3e 7c 3e 1f 24 11 3f
       0.0060884277 -0.089119725 0.24633387 0.5669574
0003e0 0a ff bd 3e b8 24 24 be c4 c1 22 be 2d 37 f6 3e
       0.37108642 -0.16029632 -0.15894228 0.4808897
0003f0 c8 cb 89 3c ce d6 32 be f6 9b 1b be 4a 9f f5 bd
       0.016820803 -0.17464754 -0.15196213 -0.119932726

l1.bias f4 [8]
000000 85 f5 5a 3e 86 0f 58 3f b7 4d f8 3e ba 5b ef 3e
       0.21382721 0.84398687 0.48496792 0.4674967
000010 53 f4 c8 3e 4f 55 2b 3f 1d 0f 20 3f 29 88 f5 3e
       0.39248905 0.66927046 0.6252306 0.47955444

l2.weight f4 [8, 8]
000000 83 ef 29 3f ec 34 8e 3f 72 4a 1c 3f d1 2b 6f bf
       0.6638109 1.11099 0.61051095 -0.93426234
000010 ee 7c 1b 3f f4 e1 65 bf a4 15 9d 3e d8 72 1d 3c
       0.607375 -0.897979 0.30680573 0.0096099
000020 76 ac a8 3d 52 48 7a 3f df 10 d4 be 77 67 6e 3e
       0.08236019 0.977666 -0.41419122 0.23281656
000030 13 8a 2e bf 28 ed c3 3e d9 1b 7c 3f 36 2e 07 bf
       -0.68179435 0.38266873 0.9847999 -0.5280489
000040 3c 7a bb be cb dd 35 3f 5b bc a9 be 59 07 47 3f
       -0.36616695 0.71041554 -0.33151516 0.77745587
000050 39 cd 1c 3e 60 59 8c 3f 61 5c 24 3f 2f 36 a2 3f
       0.15312661 1.0964775 0.6420346 1.2672786
000060 bb de 67 3f 8a e1 37 bf 93 09 f2 3d ab ad 46 3f
       0.90574235 -0.7182852 0.118182324 0.77608746
000070 e8 02 b9 bd ec 4f 90 3f 55 b3 92 3e a6 7a 83 3f
       -0.090337574 1.127439 0.28652444 1.0271804
000080 2a 21 17 bf 03 8f 56 3f 1a f0 78 3f ec 8a 26 3f
       -0.5903498 0.8381197 0.97241366 0.6505573
000090 a1 3c 90 3f 9c 0c 4b 3f 35 9e 67 bf da 60 5e 3f
       1.1268502 0.79316115 -0.9047578 0.86866534
0000a0 63 8e eb be be 81 95 3f a7 06 8d bd 79 05 13 ba
       -0.4600707 1.1680219 -0.068860345 -0.00056084205
0000b0 e4 aa c0 be cd fa 1a 3f e2 fe 6e 3f d2 10 28 bf
       -0.3763038 0.6053894 0.9335767 -0.65650666
0000c0 cd d0 46 3f bb d5 90 3e 94 33 bd be c9 df 11 3e
       0.77662355 0.28288063 -0.36953413 0.14245524
0000d0 2e 20 ce be 54 77 53 3a 3d 3e 96 3f 6f 50 34 3f
       -0.40258926 0.00080667925 1.1737744 0.7043523
0000e0 cf 6b 68 3f 20 4c 38 3f 03 79 2f bf 1e 5a 1e bf
       0.907895 0.7199116 -0.68544024 -0.6185626
0000f0 c3 48 bf be a0 d2 05 bf 84 82 14 3f 3e 9c 3b bf
       -0.373602 -0.52274513 0.5801165 -0.7328528

l2.bias f4 [8]
000000 57 3c 8b 3e 17 23 43 3f 91 d7 0a 3f 94 06 ba 3e
       0.27194473 0.7622542 0.5423518 0.36333144
000010 f4 b9 2b 3f 2b 3c 52 3f 57 6d 05 be 47 99 a2 3d
       0.67080617 0.8212306 -0.13029991 0.079393916

l3.weight f4 [7, 8]
000000 58 50 01 3f 33 a5 63 bf 84 d9 c7 3e 0d c8 5e bc
       0.5051322 -0.8892395 0.3903314 -0.0135975005
000010 90 ea 4c 3e c3 86 4b bf bb 71 16 3f 78 00 87 bf
       0.20011353 -0.79502505 0.5876729 -1.0547018
000020 1f c5 59 bd 7e 50 4b bd 25 d7 16 3e 48 ed 94 be
       -0.053166505 -0.04963731 0.14730509 -0.2908728
000030 b1 9b ec 3b ec e5 03 be 86 43 3c 3e af ec a8 3d
       0.0072207083 -0.12880677 0.18385133 0.08248269
000040 98 1e 29 3f a5 f4 06 3f b4 63 60 3e f8 3b 6a bf
       0.6606231 0.5271705 0.21913034 -0.91497755
000050 a6 3d 2a 3f c0 c7 47 3f 8d ce ab bf ed f8 53 bf
       0.6650032 0.7803917 -1.3422409 -0.82801706
000060 73 f3 8f bf 5b b5 1d 3f fd 63 35 3f 40 26 e1 3e
       -1.124617 0.6160485 0.70855695 0.43974495
000070 21 c9 b7 be f3 f2 1a 3f c7 ef 43 3f e4 2c 8b bf
       -0.35895637 0.6052696 0.76537746 -1.0873075
000080 f8 21 68 3e 72 3e 65 bd f9 b4 95 be 9e 97 ae be
       0.22669208 -0.055967756 -0.29239634 -0.3410005
000090 5d 10 a2 bd 9d 93 bb bb 6b 24 95 3d 5f cd b1 3c
       -0.07913277 -0.005724384 0.07282337 0.021704374
0000a0 6a 41 4b 3e a4 22 e8 3e ba 24 3a 3e 81 87 1f bf
       0.19849172 0.4533893 0.18178073 -0.6231614
0000b0 a2 43 5c bf 51 78 1b 3f b9 92 fe 3e 28 da 4f 3f
       -0.860407 0.60730463 0.49721316 0.81192255
0000c0 7a 51 8f bf 50 e0 4f bf bf 70 12 3f f4 a0 c5 3e
       -1.119674 -0.8120165 0.57203287 0.3859936
0000d0 3b b6 5c 3f 67 87 19 be 7e 4a 25 bf 4f d5 00 bf
       0.8621556 -0.14993058 -0.6456679 -0.50325483

l3.bias f4 [7]
000000 44 f5 1a bd c0 9d 81 be bd f8 88 3d ce a6 37 3e
       -0.03783156 -0.25315666 0.06688068 0.17934725
000010 23 b3 cb bc af bf 1b bd ce b8 17 3e
       -0.024865692 -0.0380246 0.14816591
